…
Size: ims: 
113287
Creating dictionary
Dictionary size: 27009
Found 390034 word vectors.
Found 9966 non-regular words.
Loading data
Great
Great
Great
Image model loading
Text model loading
Done!!!
(None, 2048)
(None, 2048)
loading the joined model
(None, 4096)
compiling the model
__________________________________________________________________________________________________
Layer (type)                    Output Shape         Param #     Connected to                     
==================================================================================================
cap_input (InputLayer)          (None, 50)           0                                            
__________________________________________________________________________________________________
embedding_1 (Embedding)         (None, 50, 300)      8103300     cap_input[0][0]                  
__________________________________________________________________________________________________
bidirectional_2 (Bidirectional) (None, 50, 200)      240600      embedding_1[0][0]                
__________________________________________________________________________________________________
dense_2 (Dense)                 (None, 50, 1)        201         bidirectional_2[0][0]            
__________________________________________________________________________________________________
flatten_1 (Flatten)             (None, 50)           0           dense_2[0][0]                    
__________________________________________________________________________________________________
softmax_1 (Softmax)             (None, 50)           0           flatten_1[0][0]                  
__________________________________________________________________________________________________
repeat_vector_1 (RepeatVector)  (None, 2048, 50)     0           softmax_1[0][0]                  
__________________________________________________________________________________________________
bidirectional_1 (Bidirectional) (None, 50, 2048)     8140800     embedding_1[0][0]                
__________________________________________________________________________________________________
permute_1 (Permute)             (None, 50, 2048)     0           repeat_vector_1[0][0]            
__________________________________________________________________________________________________
lambda_3 (Lambda)               (None, 50, 2048)     0           bidirectional_1[0][0]            
__________________________________________________________________________________________________
image_input (InputLayer)        (None, 4096)         0                                            
__________________________________________________________________________________________________
multiply_1 (Multiply)           (None, 50, 2048)     0           permute_1[0][0]                  
                                                                 lambda_3[0][0]                   
__________________________________________________________________________________________________
dense_1 (Dense)                 (None, 2048)         8390656     image_input[0][0]                
__________________________________________________________________________________________________
lambda_4 (Lambda)               (None, 2048)         0           multiply_1[0][0]                 
__________________________________________________________________________________________________
lambda_1 (Lambda)               (None, 2048)         0           dense_1[0][0]                    
__________________________________________________________________________________________________
lambda_5 (Lambda)               (None, 2048)         0           lambda_4[0][0]                   
__________________________________________________________________________________________________
lambda_2 (Lambda)               (None, 2048)         0           lambda_1[0][0]                   
__________________________________________________________________________________________________
concatenate_1 (Concatenate)     (None, 4096)         0           lambda_5[0][0]                   
                                                                 lambda_2[0][0]                   
==================================================================================================
Total params: 24,875,557
Trainable params: 24,875,557
Non-trainable params: 0
__________________________________________________________________________________________________
…
